checkpoint.pth (torch_old, 41712 bytes, 12 tensors)

fc1.weight f4 [64, 8]
0	0xbf318073	-0.6933662
1	0xbe305651	-0.17220427
2	0xbf85e079	-1.0459129
3	0xbefdfd5b	-0.49607357
4	0xbd8c6540	-0.068552494
5	0xbe56fdfd	-0.20995326
6	0x3df13202	0.11777116
7	0x3cb9da80	0.022687197
8	0x3e8091f5	0.25111356
9	0x3f0b10a4	0.54322267
10	0x3f195c73	0.5990669
11	0x3ec7523a	0.3892992
12	0xbf615793	-0.8802425
13	0xbeb8d5c0	-0.36100578
14	0xbf09f154	-0.5388386
15	0x3ed32484	0.41238797
16	0xbeb830e5	-0.35974804
17	0x3ef8547e	0.48501962
18	0xbe4e456d	-0.20143671
19	0x3f4da77c	0.80333686
20	0xbe5ef6b7	-0.21773802
21	0xbf454438	-0.7705722
22	0xbf48e85f	-0.7847957
23	0x3cbb0109	0.022827642
24	0xbf05b43c	-0.5222814
25	0x3d5a8f1d	0.05335914
26	0xbdd3c9a8	-0.10341197
27	0x3ef472e5	0.47743908
28	0xbe6a53a9	-0.22883476
29	0xbf5fcce2	-0.87422
30	0xbf18e49b	-0.59723824
31	0x3eb03c3a	0.3442095
32	0xbf91ae3f	-1.1381301
33	0xbec45341	-0.38344768
34	0xbf80145f	-1.0006217
35	0xbe58b00e	-0.2116091
36	0xbecaaa52	-0.3958307
37	0xbe57f9ee	-0.21091434
38	0xbcc79a20	-0.024365485
39	0x3ced4586	0.028963815
40	0x3d6d7810	0.05797583
41	0x3f2ba523	0.67048854
42	0xbce67a18	-0.02813439
43	0xbed49362	-0.41518694
44	0x3ea7e612	0.32792717
45	0x3b814694	0.003945181
46	0xbf2016d5	-0.6253484
47	0x3dfe6269	0.12421114
48	0xbd69281f	-0.056923028
49	0x3e876fb8	0.26452422
50	0x3ead8bd3	0.3389574
51	0xbfa34267	-1.2754639
52	0x3eacc089	0.33740643
53	0x3ec80d27	0.39072534
54	0x3eb93988	0.36176705
55	0x3efc6d98	0.49302363
56	0x3dbe7e45	0.09301428
57	0x3f110c0c	0.5665901
58	0x3d3e96ea	0.04653064
59	0xbf955055	-1.166514
60	0x3f475929	0.7787042
61	0x3e846fc8	0.25866532
62	0xbe450662	-0.19240716
63	0x3e97d7cb	0.29656824
64	0xbe88329f	-0.2660112
65	0xbe23e6da	-0.16006032
66	0xbea6a77d	-0.32549658
67	0x3c82c7fd	0.015964502
68	0x3f2780e6	0.6543106
69	0x3e8bccf0	0.27304792
70	0x3e4ddaef	0.20103048
71	0x3ec08744	0.376032
72	0xbe217945	-0.15768917
73	0xbdbe133e	-0.09281014
74	0x3e12ccba	0.1433591
75	0xbdda50d7	-0.1065995
76	0x3db6f0cd	0.08932648
77	0x3f6c9719	0.92418057
78	0xbc5e2980	-0.013559699
79	0xbf1a2800	-0.60217285
80	0xbd26bc13	-0.040706705
81	0xbc501bf0	-0.012701973
82	0xc010f55a	-2.264975
83	0x3f4b9938	0.7953067
84	0x3ecc3f7e	0.3989219
85	0x3e815262	0.25258166
86	0xbd983c9c	-0.07433435
87	0xbee38b6b	-0.44442305
88	0xbd925c01	-0.071464546
89	0xbdd1cf9f	-0.10244679
90	0xbf28ec30	-0.65985394
91	0xbf02b34e	-0.5105485
92	0x3f3dffa1	0.74218184
93	0x3f0b453f	0.54402536
94	0xbe8a19c0	-0.2697277
95	0xbe1332fe	-0.1437492
96	0x3d0d85ed	0.03455155
97	0x3e7e96a2	0.2486215
98	0xbe927c9d	-0.28610697
99	0xbf968be2	-1.1761439
100	0x3f59f0f7	0.8513331
101	0x3e40422f	0.18775247
102	0xbd713bd7	-0.05889496
103	0x3d8a3333	0.06748047
104	0xbde9cc7a	-0.11415954
105	0xbeb2a65c	-0.34892547
106	0xbf59b7b1	-0.85045916
107	0xbf44a822	-0.7681905
108	0x3e9842c2	0.29738432
109	0xbd5cb67d	-0.053884972
110	0x3d653364	0.055957213
111	0x3e3fbd8c	0.1872465
112	0xbe888a85	-0.26668182
113	0xbf22dc8a	-0.63617766
114	0xbf3794f3	-0.71711653
115	0xbf36b51c	-0.713701
116	0x3f8ba04d	1.0908295
117	0x3eab7eb3	0.334951
118	0x3def7424	0.11692074
119	0x3e8fac5c	0.28061187
120	0xbf2a3d66	-0.66499937
121	0xbf0e6c04	-0.5563357
122	0xbf69a2ae	-0.91263855
123	0x3d7ab734	0.061209872
124	0xbe3127f4	-0.17300397
125	0xbe79e5a3	-0.24404006
126	0x3b595bc4	0.003316627
127	0x3dcb840a	0.09937294
128	0xbe4a8629	-0.1977774
129	0x3eb01568	0.34391332
130	0x3f4904e7	0.78523105
131	0xbf824ed4	-1.0180306
132	0x3dae9086	0.085236594
133	0xbefeef2f	-0.49791858
134	0xbf4bec48	-0.7965741
135	0x3f0df634	0.554538
136	0x3e72f238	0.23725212
137	0x3f85b3e0	1.0445518
138	0xbe8917b6	-0.26775903
139	0x3d79630c	0.060885474
140	0xbee3f16f	-0.44520137
141	0x3e778f51	0.24175765
142	0xbea04665	-0.31303707
143	0xbe713a48	-0.23557389
144	0xbd91441f	-0.07093071
145	0xbe48760b	-0.1957628
146	0xbf899888	-1.0749674
147	0x3d8dada8	0.06917888
148	0x3f3fb645	0.74887496
149	0x3f82d776	1.0222003
150	0xbe011ed6	-0.12609419
151	0x3edaa163	0.42701253
152	0x3e57f0ee	0.21088001
153	0x3f0ed33e	0.5579108
154	0x3ea9d421	0.33169654
155	0xbf9e4fbb	-1.2368082
156	0x3ee60a80	0.44929886
157	0xbe610ac0	-0.21976757
158	0x3e2abb03	0.16672902
159	0x3ed43dd8	0.41453433
160	0xbdf72922	-0.12068392
161	0xbda34f31	-0.07974089
162	0xbdcd4d50	-0.10024512
163	0x3f2504ed	0.6446064
164	0x3d9548b1	0.072892554
165	0xbf4fb5a5	-0.8113654
166	0x3e21fc23	0.15818839
167	0x3ec23f4b	0.37938914
168	0x3d4f8bbd	0.050670374
169	0xc08eecea	-4.46642
170	0x3ecd4c07	0.40097067
171	0xc00d26fe	-2.205505
172	0xbe3b86d0	-0.18313146
173	0xbe77da8a	-0.2420446
174	0x3e21cb97	0.1580032
175	0x3ce3fb66	0.027829837
176	0x3d15716b	0.036485117
177	0x3e37dc28	0.17955077
178	0xbea447d8	-0.32086062
179	0x3ee1999a	0.440625
180	0x3f268e77	0.65061134
181	0x3e93b8d3	0.28851947
182	0x3ed33682	0.41252524
183	0x3edc1212	0.42982537
184	0x3e94d6b8	0.29070067
185	0x3d41deb5	0.04733153
186	0x3d95913a	0.073030904
187	0x3f0f2da6	0.5592903
188	0xbf2ae657	-0.6675772
189	0xbeb7f812	-0.3593145
190	0x3ec286a0	0.37993336
191	0x3e22655f	0.15858983
192	0xbea2927d	-0.31752387
193	0xbdcb790b	-0.099351965
194	0xbcbe90b1	-0.023262354
195	0xbc80ad7b	-0.015707722
196	0xbe8f5dd7	-0.28001282
197	0x3ecdcd1a	0.40195543
198	0x3de0488a	0.10951336
199	0x3e92c01f	0.28662202
200	0xbb2819ac	-0.0025650067
201	0x3f48d837	0.7845492
202	0x3bef632d	0.007305524
203	0x3fdcbe0b	1.7245497
204	0xbe2204ea	-0.15822187
205	0x3d050121	0.03247178
206	0xbbb85f95	-0.0056266286
207	0xbdf9f67a	-0.12205215
208	0x3f1950ec	0.598891
209	0xbebcb6f2	-0.36858326
210	0xbdee7670	-0.11643684
211	0xbf049086	-0.51783025
212	0x3f1666bc	0.5875051
213	0x3e76d210	0.2410357
214	0x3c1dc6a4	0.009629879
215	0xbf313a58	-0.6922965
216	0x3efd03e6	0.49417037
217	0xbc5a5fe7	-0.013328529
218	0xbd7de366	-0.061984442
219	0x3ebc30fd	0.36756125
220	0xbe53560a	-0.2063829
221	0xbf75a0c1	-0.95948416
222	0x3cd899ab	0.026440462
223	0x3ef303a2	0.4746371
224	0x3f3bbcc7	0.73334926
225	0xbdb9c0d5	-0.09069983
226	0x3eb7601d	0.35815516
227	0xbe7808ad	-0.2422206
228	0x3c8bc0a5	0.017059634
229	0xbe8a7840	-0.27044868
230	0xbe9e5914	-0.30927336
231	0x3eba21e9	0.36353996
232	0x3c99d3c2	0.018777732
233	0x3dc73610	0.097271085
234	0xbeed7b0b	-0.46382937
235	0x3e34c19c	0.17651981
236	0xbfdaf3b7	-1.7105626
237	0x3e654da2	0.22392896
238	0x3e1d67a8	0.15371573
239	0x3d849c60	0.06475139
240	0xbe039bde	-0.12852427
241	0x3e3c7f3e	0.18407914
242	0x3e2e8d16	0.17046008
243	0xbe92c732	-0.286676
244	0x3eb1a1b5	0.34693685
245	0x3f18937b	0.5960004
246	0x3ebf6f23	0.37389478
247	0x3e955905	0.2916948
248	0xbdf7a2b1	-0.12091578
249	0xbfbe17a7	-1.4850968
250	0x3e85ed84	0.26157773
251	0x3f3c79ea	0.73623526
252	0xbe305f0a	-0.17223755
253	0xbe6680b4	-0.22510034
254	0x3e9c7cc3	0.30563936
255	0xbe180842	-0.148469

fc1.bias f4 [64]
0	0xbeead347	-0.45864317
1	0x3e04ded0	0.12975621
2	0xbbfb93b6	-0.0076775206
3	0xbea6bc78	-0.32565665
4	0xbb902fae	-0.004400215
5	0xbdf7f127	-0.12106543
6	0x3ed534f4	0.41641963
7	0x3f08c75d	0.53429204
8	0xbcce0e7e	-0.025153395
9	0xbed17df9	-0.40916422
10	0x3c9926c1	0.018695237
11	0xbe615e7b	-0.22008698
12	0x3e9e918e	0.30970424
13	0xbce21c60	-0.02760142
14	0x3da23497	0.07920187
15	0xbdc34a15	-0.095356144
16	0x3d5a5770	0.053306043
17	0xbe0aabe8	-0.1354214
18	0xbe99074b	-0.29888377
19	0x3f4586ca	0.77158797
20	0xbd39e2a0	-0.045382142
21	0x3ef0d23d	0.470354
22	0xbe04eab0	-0.12980151
23	0x3eb6cfaa	0.3570531
24	0x3e75482f	0.23953317
25	0x3e9d82bf	0.30763814
26	0xbdfb7025	-0.12277249
27	0x3e8bfb79	0.27340296
28	0xbdadee1c	-0.084926814
29	0xbda13f86	-0.07873444
30	0x3d3a7a29	0.045526657
31	0x3eeace4c	0.45860517
32	0xbec9a274	-0.39381754
33	0xbd083e3e	-0.033262484
34	0xbd9020bc	-0.070374936
35	0x3e534d59	0.20634975
36	0xbd8ae056	-0.0678107
37	0x3ecf272d	0.40459576
38	0xbea196c5	-0.3156034
39	0xbdfeeee4	-0.124479085
40	0xbeb063d8	-0.34451175
41	0x3f041700	0.51597595
42	0xbccc6c63	-0.024954027
43	0x3d21adca	0.03947238
44	0xbdbe71cb	-0.09299048
45	0x3e81aae0	0.2532568
46	0x3e9847fd	0.29742423
47	0x3d7a3b64	0.061091796
48	0xbd3a5107	-0.04548743
49	0x3dbc5641	0.09196139
50	0xbcbaad8f	-0.022787837
51	0x3e8697cc	0.26287687
52	0xbe1b567e	-0.15169713
53	0x3e692c56	0.22770819
54	0x3d88e0e2	0.06683518
55	0xbdc3a3e3	-0.09552743
56	0x3e84e66d	0.2595705
57	0xbc5e38d9	-0.013563358
58	0x3ca398a0	0.019970238
59	0xbe773482	-0.24141124
60	0x3e82747f	0.25479504
61	0x3e8bd74f	0.27312705
62	0x3e457fe1	0.19287063
63	0xbef76fbc	-0.48327434

fc2.weight f4 [64, 64]
0	0x3e827508	0.25479913
1	0x3ddb9cab	0.107232414
2	0xbe5482cf	-0.20753025
3	0x3f3a03f7	0.726623
4	0x3e5baa86	0.21451768
5	0xbeb819a2	-0.35957056
6	0x3c9f0e21	0.019415917
7	0x3e1c11bf	0.15241145
8	0x3e13e422	0.14442495
9	0x3f236ea5	0.63840705
10	0xbf823031	-1.0170957
11	0x3ee2533f	0.44204137
12	0x3da543df	0.08069586
13	0x3da0aa87	0.078450255
14	0x3d5a2d89	0.053266082
15	0x3e24463e	0.1604242
16	0x3ed2c6eb	0.41167387
17	0xbeeeb9ef	-0.4662623
18	0x3ebeec2d	0.37289563
19	0x3d44325b	0.047899585
20	0x3ed8ee59	0.42369345
21	0xbece3d15	-0.40280977
22	0x3e8a1960	0.26972485
23	0x3e234602	0.15944675
24	0x3d5b7352	0.053576775
25	0x3ed0ddee	0.4079432
26	0xbe90af1a	-0.28258592
27	0x3ea0bfe6	0.31396407
28	0x3e81fbbe	0.25387377
29	0xbf50a764	-0.8150542
30	0x3e937567	0.28800508
31	0xbea00909	-0.31256893
32	0x3f24c590	0.64363956
33	0xbb5694ee	-0.0032742578
34	0x3e891fab	0.26781973
35	0x3d3b0507	0.04565909
36	0x3e7a7442	0.24458411
37	0x3e0e59ac	0.13901395
38	0x3efdf94a	0.49604255
39	0x3e5cf0a9	0.2157618
40	0x3f209d34	0.6273987
41	0x3d1b786d	0.037956644
42	0xbf283f41	-0.6572152
43	0xbf804cb1	-1.0023404
44	0x3ee74a67	0.45173952
45	0xbd8c768a	-0.06858547
46	0x3e0db691	0.13839175
47	0xbe3a2f1f	-0.18182038
48	0x3ef3e7f5	0.47637907
49	0x3ed190fc	0.40930927
50	0x3ee7205d	0.4514188
51	0xbdc6b0f9	-0.097017236
52	0x3e48fb81	0.19627191
53	0x3e8603b9	0.26174715
54	0x3e057c5a	0.13035718
55	0xbe030e67	-0.12798463
56	0xbea601fb	-0.32423386
57	0x3ede2af1	0.43392137
58	0xbfbbe171	-1.4678174
59	0x3d8bbab1	0.06822718
60	0x3dc72086	0.09723
61	0x3ebc3047	0.36755583
62	0x3eb5d05c	0.35510528
63	0x3f84982f	1.0358943
64	0x3dde3d40	0.10851526
65	0xbcea9941	-0.02863753
66	0x3c80629b	0.015672019
67	0x3d77bbf8	0.060481995
68	0xbdb19c00	-0.08672333
69	0x3dad4c6c	0.08461842
70	0xbde39ef8	-0.11114305
71	0xbde52297	-0.11188238
72	0x3cf6d858	0.030132458
73	0x3d0eaacc	0.034830853
74	0x3cac8469	0.021059232
75	0x3d67face	0.05663567
76	0x3d050638	0.032476634
77	0x3cc40cab	0.023931822
78	0xbd8f2e06	-0.069912
79	0x3d58c6c0	0.052923918
80	0xbe0e0850	-0.13870358
81	0x3dc834e0	0.0977571
82	0xbdefd11c	-0.11709806
83	0xbd40c02b	-0.047058266
84	0xbd0a508c	-0.03376822
85	0x3bbf4240	0.005836755
86	0x3d33d197	0.043901052
87	0xbd8ca668	-0.06867677
88	0x3da60736	0.08106844
89	0xbd67ef64	-0.056624785
90	0x3c6f4a10	0.01460506
91	0xbdaafb87	-0.08348756
92	0xbca6cc28	-0.020361021
93	0xbc059ce2	-0.00815508
94	0x3c977bc2	0.01849163
95	0xbdbf3ab0	-0.093373656
96	0xbdb8669a	-0.09003945
97	0xbdbda826	-0.092605874
98	0xbdac695d	-0.08418534
99	0xbc812421	-0.015764298
100	0x3d3ba71d	0.04581367
101	0x3d9a4672	0.075329676
102	0xbcb1c614	-0.021700896
103	0x3d8db0c7	0.06918483
104	0xbdf94504	-0.12171367
105	0x3daba696	0.08381383
106	0xbca739f8	-0.020413384
107	0xbcfaff92	-0.030639444
108	0x3c9cfea3	0.019164389
109	0x3db1a051	0.08673156
110	0xbe017bad	-0.12644835
111	0x3d67fcb4	0.05663748
112	0x3dce07bc	0.10060069
113	0x3da35fb0	0.07977235
114	0x3d4188c5	0.047249574
115	0x3d87d6f6	0.066327974
116	0xbc129ddf	-0.008948772
117	0xbde0753c	-0.10959861
118	0x3cd519ef	0.026013343
119	0x3da39400	0.07987213
120	0xbdd95b8e	-0.10613166
121	0xbde21eba	-0.11041017
122	0xbbd6c3e1	-0.0065541123
123	0xbd9750f4	-0.073884875
124	0x3c7be343	0.015374008
125	0xbe091493	-0.13386755
126	0x3d981bba	0.074271634
127	0xbdf1679e	-0.117873415
128	0x3dc882dc	0.097905844
129	0xbb12c908	-0.0022397656
130	0xbf10f52a	-0.5662409
131	0x3f41b2d3	0.7566349
132	0x3f163af7	0.58683723
133	0xbe67bd67	-0.22630845
134	0x3ec09783	0.37615594
135	0x3e8b9123	0.27259168
136	0x3ec3df06	0.3825609
137	0x3f3233e0	0.69610405
138	0xbffab8fb	-1.9587702
139	0x3ef0a1a9	0.46998337
140	0x3e60bfb0	0.21948123
141	0x3e1fe03b	0.15612881
142	0x3e6719b1	0.22568394
143	0x3f2aeb8b	0.6676566
144	0x3f3031be	0.688259
145	0xbeec884b	-0.46197733
146	0x3f5cb35a	0.8621117
147	0x3e415d58	0.18883264
148	0xbeb3c532	-0.35111386
149	0xbed07da2	-0.4072085
150	0x3e72e7c8	0.2372123
151	0xbe94b36a	-0.29043132
152	0x3e02d0bc	0.12774938
153	0x3ef72776	0.48272294
154	0xbf0bc64a	-0.5459944
155	0xbe2d2c3c	-0.16911405
156	0x3f291847	0.6605267
157	0xbf868ab3	-1.0511078
158	0x3ed67651	0.41887143
159	0xbf341ede	-0.703596
160	0x3e6f72a9	0.23383583
161	0x3ebcb028	0.36853147
162	0x3ef5139e	0.4786653
163	0xbe7c0975	-0.24612983
164	0x3e184a30	0.1487205
165	0x3de39eab	0.11114248
166	0xbd3c6d4e	-0.04600268
167	0x3e8ea612	0.27861077
168	0x3f86af26	1.0522201
169	0x3d8fa1e7	0.07013302
170	0xbfa40789	-1.28148
171	0xbe04d0b3	-0.12970237
172	0x3f507605	0.81430084
173	0x3e0ed3b4	0.13947946
174	0x3e972060	0.29516888
175	0xbed47e7e	-0.41502756
176	0x3f391cc8	0.7230954
177	0x3f025a88	0.5091939
178	0x3e9405b5	0.28910604
179	0x3df8e51a	0.12153073
180	0x3e51f527	0.20503674
181	0x3eadec69	0.3396943
182	0xbe5beffa	-0.21478263
183	0x3e940196	0.2890746
184	0xbf737a87	-0.95108837
185	0x3f3a6f7f	0.7282638
186	0xbf7b83fa	-0.98248255
187	0x3e80c60f	0.25151107
188	0x3dad73b4	0.08469334
189	0xbda13e1d	-0.07873175
190	0x3efd1469	0.49429634
191	0x3e42cc9a	0.19023362
192	0x3eefea0b	0.46858248
193	0x3f1baedf	0.6081371
194	0xbd7092b5	-0.05873366
195	0x3f4906d9	0.78526074
196	0x3e9dfc0a	0.30856353
197	0xbf03bf06	-0.51463354
198	0x3deb5503	0.11490824
199	0x3d923bbb	0.07140299
200	0x3e400ad0	0.18754125
201	0x3f620c0c	0.8829963
202	0xbea9902c	-0.33117807
203	0x3eef32cf	0.4671845
204	0x3e34ed87	0.17668734
205	0x3e516f86	0.20452699
206	0xbc269f01	-0.010169745
207	0x3ea66803	0.3250123
208	0xbd26c746	-0.040717386
209	0xbf03d865	-0.51502067
210	0x3ee36ea9	0.44420364
211	0xbda3f9a0	-0.080065966
212	0x3eb016d3	0.34392413
213	0xbf1a3f01	-0.60252386
214	0x3ead23a4	0.33816254
215	0x3d6a413b	0.057191115
216	0x3e8e7808	0.27825952
217	0x3f094780	0.53624725
218	0x3e782836	0.2423409
219	0x3ee6080f	0.44928023
220	0x3e9081bd	0.28223982
221	0xbf9bf164	-1.2183042
222	0x3e5c820c	0.21533984
223	0xbe9b6027	-0.30346796
224	0x3f21bb2f	0.63176244
225	0x3db0e92b	0.08638223
226	0x3ec20cbb	0.37900338
227	0x3d4845a6	0.048894547
228	0x3edcde87	0.43138525
229	0xbdce4408	-0.1007157
230	0x3f72daf9	0.94865376
231	0x3ecf86cc	0.4053253
232	0x3f637aa2	0.88859
233	0x3c919692	0.017771993
234	0xbf451edd	-0.7700022
235	0xbf7b4139	-0.98146397
236	0x3f08e69f	0.534769
237	0x3e440d7a	0.19145766
238	0x3e32676a	0.17422262
239	0xbd089da8	-0.033353478
240	0x3f0b08ad	0.54310113
241	0x3ec445c1	0.38334468
242	0x3f005354	0.5012715
243	0x3c5dd4e1	0.013539524
244	0x3eb59855	0.35467783
245	0x3e7578d3	0.23971872
246	0x3e2d4129	0.16919388
247	0xbeaab46e	-0.33340782
248	0xbece8370	-0.40334654
249	0x3ecb332a	0.39687473
250	0xbf850de1	-1.039486
251	0x3eb2739b	0.34853825
252	0x3e7bc204	0.2458573
253	0x3e920205	0.28517166
254	0x3e2add92	0.16686085
255	0x3f915e61	1.1356927

fc2.bias f4 [64]
0	0x3b8401e7	0.004028547
1	0xbe1672a8	-0.14692175
2	0x3db95aa9	0.09050495
3	0x3d0ab402	0.033863075
4	0xbddd60d5	-0.10809485
5	0xbcb2fae2	-0.021848146
6	0x3e8b92d7	0.27260467
7	0x3d698895	0.05701502
8	0xbdb656d0	-0.08903277
9	0xbceb1b61	-0.028699579
10	0xbdedc511	-0.11609853
11	0xbda30c9c	-0.079613894
12	0x3f18629f	0.59525484
13	0x3d6f6c11	0.05845267
14	0x3ee9175d	0.45525637
15	0x3ddf5307	0.10904508
16	0xbd7fe2cd	-0.062472153
17	0x3ce8bf8b	0.028411647
18	0xbc9dfc26	-0.019285273
19	0x3de86fe2	0.11349465
20	0x3e93d04b	0.28869852
21	0x3ce7275b	0.028217008
22	0x3c0ac64f	0.008470132
23	0x3e865d18	0.262429
24	0x3ca8dbe7	0.02061267
25	0xbcd808f6	-0.02637146
26	0x3aa18b56	0.001232485
27	0x3d0db4d6	0.034596287
28	0x3d89b5ff	0.06724166
29	0xbdc37132	-0.09543075
30	0x3d7a0e2a	0.061048664
31	0x3daa3745	0.08311323
32	0x3e56bbc2	0.20970061
33	0xbdf0ee4b	-0.11764201
34	0x3e8b2e60	0.2718382
35	0x3cd26cab	0.025686583
36	0x3c991d36	0.018690687
37	0x3e17584b	0.14779775
38	0x3dac2277	0.08405011
39	0xbb8e8434	-0.004349256
40	0xbd134280	-0.03595209
41	0x3e0dd755	0.13851674
42	0xbe3fb76c	-0.18722314
43	0x3d55810e	0.05212503
44	0xbdc62bac	-0.096762985
45	0xbce05f17	-0.027389092
46	0x3c7ef965	0.01556239
47	0x3d60752d	0.054799248
48	0x3d016692	0.03159196
49	0xbe1c95ea	-0.15291563
50	0x3eacd5b3	0.3375679
51	0x3e4152a4	0.18879181
52	0xbd940981	-0.07228375
53	0x3d6188c0	0.055062056
54	0x3d77cc75	0.06049772
55	0x3f2ba979	0.6705547
56	0xbd2ff101	-0.04295445
57	0x3dc4f264	0.09616545
58	0x3d9bb968	0.07603723
59	0x3e4f7547	0.20259582
60	0xbdb23528	-0.08701545
61	0xbc6e402b	-0.014541666
62	0x3ebee4de	0.37283987
63	0x3f01f78e	0.50768363

fc3.weight f4 [4, 64]
0	0xbe6cb609	-0.23116316
1	0x3df12459	0.11774511
2	0xbf8b4ed4	-1.0883431
3	0xbe85340b	-0.26016268
4	0xbeab7135	-0.33484808
5	0xbef43443	-0.47696123
6	0x4001c050	2.0273628
7	0xbea14680	-0.314991
8	0xbe954f3c	-0.29162014
9	0xbe9e2c46	-0.30893153
10	0x3c7bad0f	0.015361085
11	0x3d47c8fd	0.04877566
12	0x3f4a9ee3	0.7914869
13	0xbed0f5db	-0.40812573
14	0xbdade58a	-0.08491047
15	0x3fa0aac2	1.2552111
16	0xbeba778f	-0.3641934
17	0xbe933545	-0.2875158
18	0xbe8cd100	-0.27503204
19	0x3d08d547	0.033406522
20	0x401519c9	2.3296988
21	0xbee442e3	-0.4458228
22	0xbeac7c19	-0.3368843
23	0xbf305e8c	-0.6889427
24	0xbed9cf0d	-0.4254078
25	0xbead2587	-0.33817694
26	0xbec82d99	-0.39097288
27	0xbf096bd3	-0.5368015
28	0xbec3a7ae	-0.38213867
29	0x3db4740a	0.08811195
30	0xbece7591	-0.4032407
31	0xbed06b64	-0.40706933
32	0x3ff8b427	1.9429978
33	0xbdb8952c	-0.09012827
34	0x3ecc685b	0.39923367
35	0xbe9be0ec	-0.3044504
36	0xbed42dbf	-0.41441151
37	0x3edb72e2	0.42861086
38	0xbeb19ec8	-0.34691453
39	0xbecd7903	-0.40131387
40	0xbd86f332	-0.065893546
41	0x3fc29d2d	1.5204216
42	0xbf1c6efc	-0.6110685
43	0xbe5f0d9f	-0.2178254
44	0xbf2e36af	-0.6805219
45	0xbed3bb60	-0.41353893
46	0xbf270b23	-0.6525137
47	0xbecdf711	-0.4022756
48	0x3ea485d6	0.3213336
49	0xbdd5d2f1	-0.104406245
50	0xbf8911bb	-1.0708536
51	0x3f8fabba	1.1224282
52	0xbe923e2d	-0.2856306
53	0xbf9ce971	-1.2258741
54	0xbeaa0f2e	-0.33214706
55	0x3f8c8c35	1.0980288
56	0xbeb429ad	-0.35188046
57	0xbe9f054d	-0.31058732
58	0xbeb387ce	-0.35064548
59	0xbda1bae1	-0.078969724
60	0xbf0550b4	-0.5207627
61	0x3dc9f8a2	0.09861876
62	0x3f40050f	0.7500772
63	0x3f8d123b	1.1021188
64	0xbec65731	-0.38738397
65	0x3d053363	0.03251971
66	0xbfbbc220	-1.4668617
67	0xbecddaee	-0.40206093
68	0xbebc9e84	-0.36839688
69	0xbe37fdb8	-0.1796788
70	0x400bd484	2.184846
71	0xbec4efbb	-0.3846415
72	0xbf0c2d10	-0.5475626
73	0xbecf4b73	-0.4048725
74	0xbdecb2b2	-0.11557521
75	0x3d409301	0.047015194
76	0x3f45cc52	0.77264893
77	0xbebbe169	-0.36695412
78	0x3c442df4	0.011973847
79	0x3fdf9d97	1.7469968
80	0xbdbc6a03	-0.09199908
81	0xbee004fd	-0.43753806
82	0xbea98fe5	-0.33117595
83	0x3f31c9e0	0.6944866
84	0x401283c3	2.289292
85	0xbe72e014	-0.23718292
86	0xbebfeccc	-0.3748535
87	0xbd6cd544	-0.057820573
88	0xbe558268	-0.20850527
89	0xbedda247	-0.4328787
90	0xbefbc9d6	-0.49177426
91	0xbeb70876	-0.35748643
92	0xbed7e240	-0.42164803
93	0xbd3a2b54	-0.045451477
94	0xbedab049	-0.4271262
95	0xbe953617	-0.2914283
96	0x3fdd1592	1.7272208
97	0x3de64939	0.11244435
98	0x3f2beb10	0.6715555
99	0xbe88187a	-0.26581174
100	0xbef51e45	-0.47874656
101	0x3d0e0008	0.034668
102	0xbebe88be	-0.372137
103	0xbe67b588	-0.22627842
104	0x3dd7deac	0.10540518
105	0x3fcb59c4	1.5886769
106	0xbe6c6955	-0.23087056
107	0xbef29329	-0.473779
108	0xbf216940	-0.63051224
109	0xbd9d1a12	-0.07670988
110	0xbf0300f5	-0.51173335
111	0xbebb178b	-0.365414
112	0xbecbb505	-0.39786544
113	0x3d328caa	0.04359118
114	0xbfa10f61	-1.2582818
115	0x3f199746	0.5999645
116	0xbf0970f0	-0.53687954
117	0xbf29a5bb	-0.6626851
118	0xbeeb96dc	-0.46013534
119	0x3f60f510	0.87873936
120	0xbef98279	-0.48732355
121	0xbee2a0a1	-0.44263175
122	0xbecd1093	-0.40051708
123	0xbec5ba30	-0.38618612
124	0xbecb2181	-0.39674
125	0x3d7d6879	0.06186721
126	0x3f5c9eea	0.86179984
127	0x3f573eb7	0.8408007
128	0xbe810f1e	-0.25206846
129	0xbd93c4f4	-0.072153
130	0xbe2bf1fd	-0.1679153
131	0xbefa8ab6	-0.48933953
132	0xbee2d333	-0.44301757
133	0xbe3a3ed1	-0.18188025
134	0x3fcbe957	1.5930585
135	0xbf078115	-0.5293134
136	0xbf12c676	-0.5733408
137	0xbf151d46	-0.5824779
138	0x3db2a6e3	0.08723237
139	0x3dd59c4b	0.10430201
140	0x3f7b2ff4	0.98120046
141	0xbe3c8bac	-0.18412656
142	0xbf1c439e	-0.61040676
143	0x3f7b2c9c	0.98114944
144	0xbf818e20	-1.0121498
145	0xbeb598fa	-0.35468274
146	0xbf0c735c	-0.54863524
147	0xbfba4d86	-1.4554908
148	0x3fbe80e0	1.488308
149	0xbe7dff89	-0.2480451
150	0xbeebbf46	-0.46044368
151	0x3ce82364	0.028337188
152	0xbecf3081	-0.40466693
153	0xbf0362f4	-0.51322865
154	0xbed33225	-0.41249195
155	0xbf3d67f7	-0.7398676
156	0xbea3b4f3	-0.3197399
157	0xbd596128	-0.05307117
158	0xbea92980	-0.33039474
159	0xbcb23259	-0.021752523
160	0x3fe963e4	1.8233609
161	0xbd313ec6	-0.043272756
162	0x3f6275d2	0.8846103
163	0xbed8998d	-0.4230465
164	0xbeaebd7c	-0.3412894
165	0x4006eaec	2.1080885
166	0xbebfc630	-0.37455893
167	0xbf011df2	-0.5043632
168	0xbcbee057	-0.023300333
169	0x3fb9134e	1.4459016
170	0xbf2fca18	-0.68667746
171	0xbed93feb	-0.42431578
172	0xbf1296c0	-0.57261276
173	0xbf6a40c7	-0.9150509
174	0xbf8e3bf4	-1.1112046
175	0xbebf22f8	-0.37331367
176	0xbed2c72f	-0.4116759
177	0x3dd83c8e	0.10558425
178	0x3ed4c9b2	0.4156013
179	0x3fbdc3c7	1.4825372
180	0xbec4581b	-0.3834847
181	0xbf0001f5	-0.50002986
182	0xbef07fae	-0.46972412
183	0x3f4adc1e	0.7924212
184	0xbe6cba97	-0.23118053
185	0xbf0f7dd2	-0.5605136
186	0xbe9bf6b9	-0.30461672
187	0xbf67c68e	-0.90537345
188	0xbf048d54	-0.5177815
189	0xbd6e5df8	-0.058195084
190	0xbecf8940	-0.405344
191	0x3f9f5fb0	1.2451077
192	0xbeeac554	-0.45853674
193	0x3d9a84e4	0.07544878
194	0xbf1484f8	-0.58015394
195	0xbeb1edb8	-0.34751678
196	0xbea9d5b0	-0.33170843
197	0xbf11725f	-0.5681514
198	0x3ff6e800	1.9289551
199	0xbe91d5e3	-0.28483495
200	0xbe9ab796	-0.3021819
201	0xbf056068	-0.5210023
202	0xbb6f1f30	-0.0036487095
203	0xbb6eab99	-0.0036418198
204	0x3f13227d	0.574745
205	0xbed53f97	-0.41650078
206	0x3ecd6e4c	0.40123212
207	0x3eb500b7	0.35352108
208	0xbf184cec	-0.59492373
209	0xbeeda5ba	-0.46415502
210	0xbeffd087	-0.4996378
211	0xbed13d98	-0.40867305
212	0x402c08f5	2.6880467
213	0xbf012f3e	-0.5046271
214	0xbe918f73	-0.28429756
215	0xbe8aa439	-0.27078417
216	0xbf1d8bbf	-0.6154136
217	0xbe6907db	-0.22756903
218	0xbe6a15b8	-0.22859848
219	0xbf028007	-0.50976604
220	0xbef3342f	-0.4750075
221	0x3db0eb42	0.08638622
222	0xbecb8322	-0.39748484
223	0xbf106606	-0.56405675
224	0x400877ae	2.1323047
225	0x3de79462	0.11307599
226	0x3eb949ac	0.3618902
227	0xbeed594f	-0.463572
228	0xbeb7790b	-0.35834536
229	0xbdda0b49	-0.10646684
230	0xbe810a93	-0.2520338
231	0xbede3a43	-0.43403825
232	0x3d939974	0.07207003
233	0x3fa15da0	1.2606697
234	0xbe3527f4	-0.17691022
235	0xbe7ce027	-0.24694882
236	0xbd5639b3	-0.05230112
237	0xbec59bc7	-0.3859541
238	0xbf9caefb	-1.22409
239	0xbed6c566	-0.41947478
240	0xbde8713a	-0.11349721
241	0xbd7818f8	-0.060570687
242	0xbffb738e	-1.964464
243	0x3fe262dd	1.7686421
244	0xbe614722	-0.21999791
245	0xbec71f5a	-0.38891107
246	0xbe79b568	-0.24385607
247	0x3fac21b0	1.3447781
248	0xbed8f5af	-0.42374942
249	0xbefd2351	-0.49441007
250	0xbe85940c	-0.26089513
251	0x3d1a18bd	0.03762125
252	0xbe503ab6	-0.20334896
253	0xbdc53e03	-0.096309684
254	0x3f46d4f9	0.7766872
255	0x3f363b96	0.7118467

fc3.bias f4 [4]
0	0xbdfcb1dd	-0.12338612
1	0xbdeeef7a	-0.1166677
2	0x3e178500	0.14796829
3	0xba8f4339	-0.0010930068

fc4.weight f4 [64, 8]
0	0xbf2670c4	-0.65015817
1	0x3d0a4e7d	0.03376626
2	0xbaa22604	-0.0012370949
3	0x3f5f247c	0.87165046
4	0xbedd3ce3	-0.43210515
5	0xbf1624c5	-0.58649856
6	0xbe95c75c	-0.29253662
7	0x3eab1dd2	0.3342119
8	0xbc2d6159	-0.0105822915
9	0xbee7a7f3	-0.45245323
10	0xbfb57fa8	-1.4179583
11	0x3d1ce125	0.038300652
12	0x3f2106f8	0.6290126
13	0x3f4d5726	0.802111
14	0x3de479f0	0.1115607
15	0x3e8aa65a	0.2708004
16	0xbce63202	-0.028100017
17	0xbe029238	-0.1275109
18	0xbf0cf761	-0.5506497
19	0xbeb9ccfb	-0.362892
20	0x3f5b8dca	0.8576323
21	0x3f0eb695	0.5574735
22	0xbe9823c0	-0.29714775
23	0xbe01f920	-0.1269269
24	0x3f2d75b7	0.67757744
25	0xbe4f6dee	-0.20256779
26	0x3ee39888	0.4445231
27	0x3f88fb4c	1.070169
28	0xbf3c1ad0	-0.7347841
29	0xbd93e27b	-0.07220932
30	0x3eacb97d	0.33735266
31	0x3d55d42c	0.052204296
32	0x3e2010ab	0.15631358
33	0xbd89e91d	-0.06733916
34	0xbda5e8db	-0.08101054
35	0xbd1707f2	-0.03687281
36	0xbde27de4	-0.11059168
37	0xbf51e830	-0.81994915
38	0xbf3becb1	-0.7340804
39	0x3ec4a808	0.38409448
40	0x3efb80e5	0.49121776
41	0x3e8fe4de	0.281043
42	0x401aa554	2.4163408
43	0x3f17ccc3	0.59296817
44	0x3ef75297	0.483052
45	0xbde1a7a0	-0.110183
46	0x3da61284	0.08109
47	0x3e6c2b6d	0.2306344
48	0x3f41718a	0.7556387
49	0xbf7bc1b7	-0.9834246
50	0x3fc0d4f8	1.5064993
51	0x3f518529	0.8184381
52	0xbf3dfd8d	-0.7421501
53	0x3e5bd4e8	0.21467936
54	0x3d853802	0.06504823
55	0x3e907a88	0.28218484
56	0xbe21ee86	-0.15813646
57	0x3e3a6a2a	0.18204561
58	0xbecb4dea	-0.3970788
59	0x3f0bedee	0.54659927
60	0x3e7f0a6e	0.24906322
61	0x3f5bd0a3	0.8586523
62	0xbebc7829	-0.36810425
63	0xbd7d4b75	-0.06183954
64	0xbec2c1d2	-0.38038498
65	0xbe7406c3	-0.23830704
66	0xbf27206b	-0.6528384
67	0x3dbb7113	0.091524266
68	0xbe1dac33	-0.1539772
69	0xbed238da	-0.41059
70	0x3ec8514c	0.39124525
71	0x3e9ba38e	0.3039822
72	0x3ba4e2a5	0.005031901
73	0x3c64df9d	0.013969329
74	0x4014be99	2.3241332
75	0xbf18fcf9	-0.59761006
76	0xbda0e27e	-0.078557
77	0xbe1facc4	-0.15593249
78	0xbe7f7f54	-0.24950916
79	0xbf0abcb4	-0.5419419
80	0xbe13a3a3	-0.14417891
81	0xc03d1694	-2.954503
82	0x3e8e62e0	0.2780981
83	0xbf49cd58	-0.78828955
84	0x3ea07352	0.31337982
85	0xbe860bb7	-0.26180813
86	0x3f2dca88	0.67887163
87	0x3eed3165	0.46326748
88	0xbdf9423b	-0.121708356
89	0xbf2f6d82	-0.6852647
90	0xbfb8e56c	-1.4445014
91	0x3fc4c4b4	1.5372529
92	0x3f7010f5	0.93775874
93	0x3e7ad872	0.2449663
94	0x3e979257	0.29603836
95	0xbe6d6a38	-0.2318505
96	0x3bc466b4	0.0059936885
97	0xbd526b5b	-0.051371913
98	0xbd3c7881	-0.04601336
99	0xbe741c5b	-0.23838942
100	0xbf1acb23	-0.6046621
101	0xbf3c9330	-0.7366209
102	0xbf8edfdf	-1.116207
103	0xbea15d7d	-0.31516638
104	0xbccf091b	-0.025272897
105	0x3e5d4c1b	0.21611063
106	0x3ef78200	0.4834137
107	0x3e8e9da9	0.2785466
108	0x3f206f73	0.6267006
109	0x3f6e6f0e	0.93138206
110	0x3eb5f395	0.355374
111	0x3ea0d0e3	0.31409368
112	0xbceb64cc	-0.028734587
113	0x3d9738d4	0.07383886
114	0x3e43589d	0.19076772
115	0xbe35fe72	-0.17772844
116	0xbd2da295	-0.04239138
117	0x3f3c6780	0.7359543
118	0xbdaddc55	-0.084892906
119	0xbf1c8613	-0.6114208
120	0x3e07fb3f	0.13279437
121	0xbda61620	-0.08109689
122	0xbf06a77b	-0.52599305
123	0xbfa1b04b	-1.2631925
124	0x3ed369c2	0.41291624
125	0x3f5a40d6	0.8525518
126	0xbe68cd9d	-0.22734685
127	0xbdf28489	-0.11841685
128	0x3e26eb05	0.1630059
129	0x3f107e54	0.5644276
130	0xbe920dfd	-0.28526297
131	0x3f8c798b	1.0974592
132	0xbef9d07b	-0.4879187
133	0xbf3bd2d0	-0.7336855
134	0xbf7b6825	-0.98205787
135	0xbe9f68d0	-0.31134653
136	0x3f086345	0.53276473
137	0xbef986ce	-0.4873566
138	0x3f510c1a	0.8165909
139	0xbf3ed10f	-0.7453775
140	0xbf40507b	-0.75122803
141	0x3e5a68a8	0.21328986
142	0x3de2ecc8	0.11080319
143	0x3d7fe2e7	0.06247225
144	0xbc05d49c	-0.008168366
145	0x3f243d30	0.64155865
146	0xbf4fb726	-0.8113884
147	0xbfe27dbd	-1.7694622
148	0x3e839dfe	0.25706476
149	0xbecdeac0	-0.40218163
150	0xbea6cb5a	-0.3257702
151	0x3e547d0a	0.20750824
152	0x3d9a44f7	0.07532685
153	0xbd9f53d6	-0.07779662
154	0xbda90825	-0.082535066
155	0x3d908f1b	0.07058545
156	0xbe41dfcb	-0.18933026
157	0xbf1d3cc5	-0.6142085
158	0x3ecbc0da	0.39795572
159	0x3ed6a159	0.41919973
160	0xbf0459f1	-0.5169974
161	0xbe4d082d	-0.2002265
162	0xbf7ce5e5	-0.9878829
163	0xbf296e73	-0.6618416
164	0x3f111728	0.5667596
165	0x3efe9c4d	0.49728623
166	0xbdf7aaf6	-0.12093155
167	0x3ec36978	0.38166404
168	0xbd409d41	-0.04702497
169	0xbde9b189	-0.11410815
170	0x3f7aef5a	0.9802147
171	0xbf2088ee	-0.6270894
172	0x3fbd3eaa	1.4784749
173	0x3d815393	0.06314769
174	0xbe5e0290	-0.21680665
175	0x3e07b599	0.13252868
176	0xbe34e87a	-0.17666808
177	0xbfe1523e	-1.7603223
178	0xbfab31ad	-1.3374535
179	0x3ec0488f	0.37555358
180	0x3f822b7d	1.0169522
181	0xbe816945	-0.25275627
182	0x3e35e9dc	0.17764992
183	0xbcd37558	-0.02581279
184	0x3e52ccf9	0.20586003
185	0x3e8a979a	0.27068788
186	0xbdb0ae70	-0.08627021
187	0xbeeda965	-0.464183
188	0x3f88cb3a	1.068702
189	0xbe83fd6a	-0.25779277
190	0xbe9d03ec	-0.30667055
191	0xbe55e061	-0.20886375
192	0xbe7203be	-0.2363424
193	0x3d8af329	0.0678466
194	0xbd8834ca	-0.06650694
195	0x3e2f4fd7	0.171203
196	0xc0267eef	-2.6014974
197	0x3e2f75aa	0.17134729
198	0xbde3366c	-0.110943645
199	0xbe37c7bc	-0.17947286
200	0x3ee42af1	0.44564012
201	0x3e0c2965	0.13687666
202	0x3e41ebc3	0.18937592
203	0x3f36a26f	0.71341604
204	0xbfac3518	-1.3453703
205	0xbddcbf17	-0.10778635
206	0xbf21bb92	-0.63176835
207	0xbf036dfb	-0.5133969
208	0xbf005e44	-0.5014384
209	0x3e448222	0.19190267
210	0xbf11c7ec	-0.5694568
211	0x3eaf5152	0.3424173
212	0x3ef14401	0.47122195
213	0x3f18d911	0.5970622
214	0x3eeff0a0	0.4686327
215	0xbf03e2e8	-0.51518106
216	0x3e53ea10	0.20694757
217	0xbf850257	-1.0391339
218	0x3ebdbfe0	0.37060452
219	0xbfde723c	-1.7378612
220	0x3ed529f7	0.4163358
221	0x3f41fcad	0.7577618
222	0x3e504884	0.20340163
223	0x3e8f458e	0.27982754
224	0xbdaad8fc	-0.08342168
225	0xbd990348	-0.07471329
226	0xbea484a4	-0.32132447
227	0x3ed29f25	0.41137043
228	0x3f2a8593	0.6661007
229	0x3ed99d31	0.4250274
230	0x3eb6dbfc	0.3571471
231	0x3ecbcd2d	0.39804974
232	0x3d51f712	0.051261015
233	0xbd683584	-0.05669166
234	0x3efa5102	0.4888993
235	0xbe58786f	-0.21139692
236	0xbf8a79ef	-1.0818461
237	0xbd7ab252	-0.061205216
238	0xbf48015a	-0.7812706
239	0xbed3c5aa	-0.41361743
240	0xbf2581b2	-0.64651024
241	0xbe93819d	-0.28809825
242	0xbf3f9592	-0.748376
243	0xbe39be96	-0.18139109
244	0xbe98f761	-0.29876235
245	0xbe63983e	-0.22226045
246	0x3e6c1a99	0.23057021
247	0xbe30613a	-0.17224589
248	0x3dba44a4	0.090951234
249	0xbda3f982	-0.08006574
250	0xbf672650	-0.90292835
251	0xbf568e83	-0.83811206
252	0x3fdf299f	1.7434577
253	0xbefcb601	-0.49357608
254	0xbe95405e	-0.2915067
255	0x3d87d219	0.0663187

fc4.bias f4 [64]
0	0xbeada424	-0.33914292
1	0xbec537da	-0.38519174
2	0xbe044d28	-0.12920058
3	0xbe9578b6	-0.29193658
4	0x3e9f64a9	0.31131485
5	0xbe95eed3	-0.2928377
6	0xbebb21be	-0.3654918
7	0x3eb34773	0.3501545
8	0xbd2b3373	-0.041797113
9	0x3a8e6d97	0.00108664
10	0x3ec34ef4	0.38146174
11	0xbd8ffab1	-0.070302375
12	0xbd55ee3b	-0.052229147
13	0x3d95ef3e	0.073210225
14	0xbcfb884b	-0.030704638
15	0x3ea2669f	0.3171892
16	0x3d078c09	0.033092532
17	0xbf0ef5a3	-0.5584356
18	0x3da970c8	0.082734644
19	0x3eb1b740	0.3471012
20	0xbea15b25	-0.3151485
21	0x3da0bc14	0.07848373
22	0x3e8901a5	0.26759067
23	0x3ee803ad	0.45315304
24	0xbcc41e41	-0.023940207
25	0x3e855a8e	0.2604565
26	0x3cf9dcd4	0.030500807
27	0x3e5dc0c2	0.21655563
28	0xbdbf85c3	-0.09351685
29	0xbdd40b2a	-0.10353692
30	0xbeb1e1de	-0.34742635
31	0x3e4f1e41	0.20226385
32	0x3e919a3b	0.2843798
33	0xbe8bcc26	-0.2730419
34	0x3e6c72d3	0.23090677
35	0xbd314f77	-0.043288674
36	0xbeab6f48	-0.33483338
37	0xbc2a6f86	-0.010402566
38	0x3e55041f	0.20802353
39	0x3ec2fcd2	0.38083512
40	0x3dc568e6	0.096391484
41	0x3e496840	0.19668674
42	0x3e43be59	0.1911558
43	0x3ee35d1b	0.4440697
44	0xbd6cfd8c	-0.05785899
45	0x3de34b13	0.11098304
46	0xbd224760	-0.03961885
47	0x3e35c291	0.17750002
48	0xbc308f5d	-0.010776368
49	0xbeab18d0	-0.33417368
50	0x3e899152	0.26868683
51	0x3e89e2a2	0.2693072
52	0xbdc4e282	-0.096135154
53	0x3c8d8f2d	0.017280186
54	0xbea7ed95	-0.32798448
55	0x3e9e10dd	0.3087224
56	0x3e3b7c0a	0.18309036
57	0x3ec73a8a	0.3891185
58	0x3eb202fa	0.34767896
59	0xbd99d42b	-0.07511171
60	0x3e831e4e	0.25609058
61	0x3efe6ca6	0.49692267
62	0xbe4a5b11	-0.19761302
63	0xbdc49dab	-0.09600385

fc5.weight f4 [64, 64]
0	0x3e136435	0.14393695
1	0xbe248f91	-0.16070391
2	0xbefc4bfe	-0.49276727
3	0xbee7d37d	-0.4527854
4	0xbdc157bf	-0.09440564
5	0x3f1bef91	0.60912424
6	0xbed483a1	-0.41506675
7	0xbf39c640	-0.7256813
8	0xbde31b9f	-0.11089253
9	0x3f7867bf	0.97033304
10	0x3f10836c	0.56450534
11	0x3eb97384	0.36220944
12	0xbe66dedf	-0.22545956
13	0xbe42c148	-0.19019043
14	0x3e3efc85	0.18651016
15	0x3e3a56b1	0.18197133
16	0xbf9cc4ae	-1.2247522
17	0xbf23d6fc	-0.63999915
18	0x3eb881d5	0.36036554
19	0xbeaf25fc	-0.34208667
20	0xbe96fbcf	-0.2948899
21	0x3f32a79d	0.6978701
22	0x3f275c83	0.65375537
23	0x3f3c5220	0.7356281
24	0x3fb34512	1.4005454
25	0xbe703957	-0.23459373
26	0x3ea2a3f7	0.3176572
27	0xbf0b2312	-0.5435039
28	0xbec5eb18	-0.38655925
29	0xbc14f03a	-0.009090478
30	0xbbe7ddbb	-0.007075993
31	0x3f8fc4ca	1.123193
32	0xbfb120c0	-1.383812
33	0x3e6f61b9	0.23377122
34	0xbe29f089	-0.16595663
35	0x3fbd6b53	1.4798378
36	0xbe22cc78	-0.15898311
37	0xbeb1dc3d	-0.3473834
38	0x3e70b582	0.2350674
39	0x3e87fb8d	0.26559106
40	0xbd1f4a85	-0.038889427
41	0xbe881270	-0.26576567
42	0xbe1af1fb	-0.1513137
43	0x3e79b8ff	0.24386977
44	0xbea74612	-0.32670647
45	0x3fcc9218	1.5982084
46	0x3b12f82a	0.002242575
47	0xbc9bf155	-0.019035975
48	0xbc55fd8b	-0.013060938
49	0x3c974790	0.01846674
50	0x3da27c0a	0.07933815
51	0x3e58fccd	0.21190186
52	0xbea781a3	-0.32716092
53	0x3f07a1d3	0.529813
54	0x3f398201	0.72463995
55	0x3f1db919	0.6161056
56	0x3eaff975	0.34370008
57	0xbed1d3e7	-0.4098198
58	0xbe71e285	-0.23621567
59	0xbea3cdd1	-0.31992963
60	0x3f0deec6	0.55442464
61	0x3e65d104	0.22443014
62	0xbf062b4c	-0.52409816
63	0x3e23e420	0.16004992
64	0x3f0508e2	0.5196668
65	0x3f1f3b36	0.62199724
66	0x3f40654a	0.75154555
67	0x3e8085c3	0.25102052
68	0x3e8987f4	0.26861537
69	0x3e54a570	0.20766234
70	0x3f4a4dea	0.7902514
71	0x3e2c4d1c	0.1682629
72	0x3e660fc5	0.22466953
73	0xbe9c990d	-0.30585518
74	0xbf6aa3e2	-0.91656315
75	0x3ee21c35	0.44162145
76	0x3eea2b94	0.45736372
77	0x3e7cd6d6	0.24691328
78	0x3eb61ec3	0.35570344
79	0x3e26a7df	0.16274975
80	0xbe34580c	-0.17611712
81	0x3f799b1f	0.9750232
82	0x3ecc181e	0.3986215
83	0x3e8ab2bc	0.27089489
84	0x3effe15c	0.49976623
85	0xbe512a57	-0.20426308
86	0x3d474d81	0.048657898
87	0xbceecef0	-0.02915141
88	0xbf6a1e16	-0.9145216
89	0xbdd11a33	-0.10210075
90	0x3e9f35bb	0.3109568
91	0xbe014a3f	-0.12625979
92	0x3e695144	0.22784907
93	0x3f365073	0.71216506
94	0x3ecfcaa1	0.4058428
95	0x3dd34377	0.10315602
96	0xbd4841f7	-0.048891034
97	0x3f1a33dd	0.6023539
98	0x3edc1443	0.42984208
99	0xbf71971b	-0.94371194
100	0x3efd58b0	0.49481726
101	0x3e3dee78	0.18548
102	0xbf26c3a3	-0.6514227
103	0xbe2b069a	-0.16701737
104	0xbef042ff	-0.46926114
105	0xbd8b8e56	-0.06814258
106	0x3ee2d8e5	0.44306102
107	0xbe5cd030	-0.21563792
108	0x3f3434bd	0.7039297
109	0xbef016e9	-0.4689248
110	0x3e2422ec	0.16028947
111	0x3f085ba9	0.5326486
112	0x3e69edca	0.22844616
113	0x3d87cdb8	0.066310346
114	0x3ee7002b	0.45117316
115	0x3e152e53	0.14568453
116	0x3eb3ee12	0.3514257
117	0x3ea5bdc1	0.32371333
118	0x3e8b72d9	0.2723606
119	0x3de14e54	0.11001268
120	0x3dd90097	0.10595816
121	0x3dfa6401	0.122261055
122	0x3dcf08ee	0.10109125
123	0x3e67ab4b	0.22623937
124	0x3e9bc1ee	0.30421394
125	0x3e8e9f7d	0.27856055
126	0x3ef2f166	0.47449797
127	0x3f1d43ea	0.61431754
128	0x3eaab854	0.33343756
129	0x3fb5ca35	1.4202334
130	0x3ed49ef8	0.41527534
131	0x3e297ff6	0.1655272
132	0x3eafac07	0.34310934
133	0xbf1e5f4d	-0.6186417
134	0x3e807a0c	0.25093114
135	0x3e651f04	0.22375113
136	0x3e4c80e3	0.19971041
137	0x3e6cd6ca	0.2312881
138	0xbeaf3a73	-0.3422428
139	0x3f3a91ea	0.728789
140	0x3e2a6637	0.16640554
141	0x3e6e504f	0.23272823
142	0x3d676b6f	0.05649894
143	0xbe06469a	-0.1311287
144	0x3e9a6a77	0.3015935
145	0x3e11e34f	0.14246868
146	0x3ef62046	0.48071498
147	0x3e180801	0.14846803
148	0x3ea5e29a	0.32399446
149	0xbe0ee7b0	-0.1395557
150	0x3e9d4282	0.30714804
151	0x3e496eec	0.1967122
152	0xbf612bb7	-0.8795733
153	0x3f1b2efc	0.6061857
154	0x3ee991e7	0.45619127
155	0xbe85f52b	-0.2616361
156	0x3e91c9e0	0.2847433
157	0x3eabcb59	0.3355358
158	0x3eb3bfd5	0.35107294
159	0x3e7afb2a	0.24509874
160	0x3e5bdfeb	0.21472137
161	0x3dd35c7b	0.103203736
162	0x3e1e4104	0.15454489
163	0xbf849836	-1.0358951
164	0x3f002a0f	0.50064176
165	0x3de79ccd	0.11309204
166	0xbf80377d	-1.0016934
167	0xbd314129	-0.043275032
168	0x3d8bd948	0.068285525
169	0xbe2d1467	-0.16902314
170	0x3ea6b630	0.32560873
171	0xbde435ce	-0.11143075
172	0x3e8b0e5c	0.27159393
173	0xbd20d881	-0.039268974
174	0xbeb705ff	-0.35746762
175	0x3d8f9bb7	0.07012122
176	0xbd25c838	-0.040474147
177	0xbd1b7c34	-0.037960246
178	0x3e9655b5	0.29362264
179	0x3e74152c	0.23836201
180	0xbe60970d	-0.21932621
181	0x3e99c35f	0.3003187
182	0x3eaea7a8	0.34112287
183	0x3eb0286b	0.34405836
184	0x3e5060b9	0.20349397
185	0x3e30a02c	0.172486
186	0xbde26a61	-0.110554464
187	0x3da5d40f	0.080970876
188	0x3e9f02a0	0.3105669
189	0xbe8d68aa	-0.27618915
190	0x3e9a3a2a	0.301225
191	0x3eaee307	0.34157583
192	0x3efc3be0	0.4926443
193	0x3f56e196	0.83937967
194	0x3f0a4be6	0.5402206
195	0x3ee2cba1	0.44295982
196	0x3f218bac	0.6310375
197	0x3e44a010	0.19201684
198	0x3f6e8d64	0.93184495
199	0x3ebd76b1	0.37004617
200	0x3d337cc1	0.043820146
201	0xbee9b272	-0.45643955
202	0xbf655f2a	-0.89598334
203	0x3eef235c	0.46706665
204	0x3f06bf1e	0.5263537
205	0x3e31738e	0.17329237
206	0x3ee505f8	0.44731116
207	0x3e74e6dc	0.23916191
208	0xbe00884d	-0.12551995
209	0x3f626a1d	0.88443166
210	0x3e89eeb1	0.2693992
211	0x3e79e6de	0.24404475
212	0x3ede2a14	0.43391478
213	0x3b65ed3e	0.0035084034
214	0xbcfd59d7	-0.030926628
215	0x3c015e25	0.007895981
216	0xbf8838fa	-1.0642388
217	0x3e219fc7	0.15783606
218	0x3ebd216f	0.3693957
219	0xbdde542e	-0.108559
220	0x3e9fd24a	0.31215125
221	0x3f060f49	0.52367073
222	0x3e9cb03d	0.3060321
223	0xbe01cefa	-0.12676612
224	0x3d86baa3	0.06578567
225	0x3f324b68	0.6964631
226	0x3ed57c15	0.4169623
227	0xbfa0de40	-1.2567825
228	0x3f08937f	0.5335006
229	0x3e85c8d5	0.26129785
230	0xbec0f4c9	-0.37686756
231	0xbd53d81a	-0.051719762
232	0xbead2fdb	-0.33825573
233	0x3d4d51a7	0.050126698
234	0x3ef9de9d	0.48802653
235	0xbdbe7646	-0.092999026
236	0x3eff4159	0.49854544
237	0xbf2f892c	-0.6856868
238	0x3e821273	0.254047
239	0x3edd9d00	0.43283844
240	0x3e4109d5	0.18851407
241	0xbdd35a44	-0.10319951
242	0x3ec29044	0.3800069
243	0x3d564b36	0.05231782
244	0x3db2d8d0	0.0873276
245	0x3eefa583	0.46805963
246	0x3ecd78aa	0.40131122
247	0x3cd3aa42	0.025838021
248	0x3ca85919	0.020550298
249	0x3e82a415	0.2551581
250	0x3dff03d5	0.12451903
251	0x3dab3d35	0.08361284
252	0x3e863637	0.26213238
253	0x3e5da2e0	0.21644163
254	0x3e898b28	0.2686398
255	0x3f05eb9e	0.5231265

fc5.bias f4 [64]
0	0xbd0c270d	-0.03421693
1	0xbbf7d3d4	-0.0075630937
2	0x3d693895	0.056938726
3	0x3d89afe6	0.06723003
4	0x3cabdd5d	0.020979578
5	0x3d7b3542	0.061330087
6	0xbe2dd571	-0.16975953
7	0xbc83e23f	-0.016099093
8	0x3dc5d7d5	0.09660307
9	0x3cc60101	0.0241704
10	0x3dbb7d42	0.091547504
11	0xbd2def40	-0.042464495
12	0x3eb9ecc8	0.36313462
13	0x3e694f4e	0.22784159
14	0x3e8bb966	0.27289885
15	0xbd759f0f	-0.059966143
16	0x3e1fa184	0.15588957
17	0x3ca66212	0.020310435
18	0x3ea6ffb2	0.32616955
19	0xbd00f8ac	-0.031487152
20	0x3d2ad1ee	0.04170411
21	0xbd925ce2	-0.07146622
22	0x3dbd9b50	0.09258139
23	0x3d92dddc	0.071712226
24	0x3e41bfd7	0.18920837
25	0x3e4a3e87	0.19750415
26	0xbe5d9af0	-0.21641135
27	0xbd6ac434	-0.05731602
28	0x3d928acb	0.07155379
29	0xbd6cc5c3	-0.057805788
30	0x3e1bcae0	0.1521411
31	0x3ee9fbc3	0.4569989
32	0x3d43d096	0.047806345
33	0x3e0585a5	0.13039263
34	0x3e1ec07b	0.15503113
35	0x3de5f9f7	0.11229318
36	0x3c610b27	0.013735569
37	0xbe0e6b3c	-0.13908094
38	0xbc332272	-0.010933505
39	0x3cfc9ca0	0.030836403
40	0xbd4afe1b	-0.04955874
41	0xbdfa4733	-0.122206114
42	0xbd765773	-0.06014199
43	0x3f66cb04	0.9015353
44	0x3d6dc251	0.058046643
45	0x3e4b2d7a	0.19841567
46	0xbdb1ab2b	-0.08675226
47	0x3d670881	0.056404594
48	0x3d7a7569	0.061147127
49	0x3cbc1cd9	0.022962974
50	0x3d394f36	0.045241557
51	0x3d80baf7	0.06285661
52	0x3dc650a9	0.096833535
53	0xbed22f56	-0.4105174
54	0xbce18e46	-0.027533662
55	0x3cfb8a31	0.030705543
56	0x3de4a8f8	0.11165041
57	0x3e7d8587	0.24757968
58	0xbdd50583	-0.10401442
59	0xbc4d2707	-0.012521512
60	0x3d48f42e	0.049060993
61	0xbdffa76c	-0.12483105
62	0x3cfb2ea4	0.030661888
63	0x3dafc110	0.085817456

fc6.weight f4 [4, 64]
0	0x3fe536c7	1.7907342
1	0xbe81a315	-0.25319734
2	0xbf4609ca	-0.77358687
3	0xbea9c032	-0.33154446
4	0xbf1ef60c	-0.6209419
5	0xbf04bc32	-0.51849663
6	0xbf7120f8	-0.9419093
7	0xbec277b9	-0.37981966
8	0x3fe72738	1.8058844
9	0x3d80a84c	0.062821
10	0x3eb4d48a	0.35318404
11	0x3d5661c6	0.052339338
12	0x3ecbef01	0.39830783
13	0xbf20e8b2	-0.62855065
14	0x3fd58e57	1.6684064
15	0xbf3c72b5	-0.7361253
16	0x3fbffc5a	1.4998887
17	0xbf036bd8	-0.5133643
18	0xbf35724b	-0.7087752
19	0x3f0f022f	0.55862707
20	0x3f96eead	1.1791588
21	0xbfad927d	-1.356033
22	0xbf077f09	-0.52928215
23	0xbed96b63	-0.42464742
24	0x3fa87d96	1.3163326
25	0x3d653a93	0.055964064
26	0xbf3e3616	-0.7430128
27	0xbf1133b6	-0.5671953
28	0x3d2dcc23	0.042431008
29	0xbf137c8c	-0.5761192
30	0x3fee82dc	1.8633685
31	0x3eeb9e62	0.46019274
32	0xbf2c6091	-0.6733485
33	0xbf311216	-0.6916822
34	0xbf2585db	-0.6465737
35	0x3fcd99df	1.6062583
36	0xbe82b85e	-0.25531286
37	0xbec5cbd3	-0.38632068
38	0xbf18c5cc	-0.59676814
39	0xbede840d	-0.43460122
40	0xbed657e5	-0.41863933
41	0x3d812bd4	0.06307188
42	0xbea40335	-0.32033697
43	0x3f953c85	1.1659094
44	0x3ff4db8b	1.9129499
45	0xbeac3720	-0.33635807
46	0xbea22837	-0.31671306
47	0xbee5a18b	-0.4484981
48	0xbf16ca66	-0.58902586
49	0xbdd6ec88	-0.104943335
50	0xbf17f7c9	-0.59362465
51	0xbe5659d5	-0.20932706
52	0xbf943e8a	-1.1581585
53	0xbea3acd3	-0.31967792
54	0xbeb300af	-0.3496146
55	0x3fda4b20	1.7054176
56	0xbe83cf3d	-0.25744048
57	0x3ee52f88	0.44762826
58	0xbedb77a7	-0.42864725
59	0xbaa5ffb8	-0.0012664711
60	0x3fd19fcb	1.637689
61	0x3c93dc13	0.018049276
62	0xbefe0d6c	-0.49619615
63	0xbecb87a5	-0.39751926
64	0x3feb8d59	1.8402511
65	0xbf21b79a	-0.6317078
66	0xbe9a1212	-0.30091912
67	0xbe90ca0b	-0.28279147
68	0xbf1b4186	-0.60646856
69	0xbf044572	-0.51668465
70	0xbf2aafaf	-0.6667432
71	0xbf164a21	-0.5870686
72	0x3fc6659a	1.5499756
73	0xbdd58730	-0.104261756
74	0x3fab0229	1.3360034
75	0xbd8e2798	-0.06941146
76	0xbe68f417	-0.22749363
77	0xbee62a1a	-0.44953996
78	0x3fcb060b	1.5861219
79	0xbf1205bc	-0.5704
80	0x3f281e90	0.65671635
81	0xbee18180	-0.44044113
82	0xbf330b24	-0.69938874
83	0x3e5c4d5e	0.21513888
84	0x3fbe2edb	1.4858049
85	0xbe76dd3a	-0.24107829
86	0xbeffccc0	-0.499609
87	0xbe70e3bc	-0.23524374
88	0x3f5f4e1b	0.87228554
89	0xbf3e9d64	-0.7445891
90	0xbef2cfb2	-0.47424084
91	0xbf1a2d07	-0.60224956
92	0x3d2e0a1e	0.042490117
93	0xbeeb6c92	-0.4598127
94	0x4011061d	2.2659981
95	0x3f5f608f	0.8725671
96	0xbf4219e0	-0.7582073
97	0xbf076313	-0.5288555
98	0xbf09e80e	-0.5386971
99	0x3fb403e8	1.4063692
100	0xbe97c8e9	-0.2964547
101	0xbee03f8d	-0.43798485
102	0xbee04aa6	-0.43806952
103	0xbf045957	-0.5169882
104	0xbee85db3	-0.45383987
105	0x3c9f5071	0.019447537
106	0xbea253df	-0.31704614
107	0x3f92656c	1.1437201
108	0x3ff8a331	1.9424802
109	0x3de843f8	0.11341089
110	0xbebab5e1	-0.36466888
111	0xbedf4c64	-0.4361297
112	0xbea33a8b	-0.31880602
113	0x3db0e896	0.08638112
114	0xbf0752f6	-0.52860963
115	0xbf3f89f6	-0.74819887
116	0xbf9c8dce	-1.2230775
117	0xbe2700c6	-0.16308889
118	0xbe30b5db	-0.17256872
119	0x3fd0c07d	1.6308743
120	0xbe8e2aaa	-0.27766925
121	0x3efae51b	0.4900292
122	0xbf099a10	-0.53750706
123	0x3cd05f68	0.025436118
124	0x3fe34a52	1.7757056
125	0x3d62c724	0.055365697
126	0xbe4b848d	-0.19874783
127	0xbee1deaf	-0.44115207
128	0x3f576875	0.84143764
129	0xbf1dcf53	-0.61644477
130	0xbf2f08c8	-0.68372774
131	0xbee2724c	-0.44227827
132	0xbeb76417	-0.3581855
133	0xbe0ee97b	-0.13956253
134	0xbf084917	-0.53236526
135	0xbed133cd	-0.40859833
136	0x3fe37a44	1.7771688
137	0x3d950bbc	0.07277629
138	0x3f48b4c2	0.78400815
139	0x3dcb8526	0.099375054
140	0x3f813fcf	1.0097598
141	0x3ec51d91	0.3849912
142	0x3faac43b	1.3341135
143	0xbf2126f6	-0.62950075
144	0x3fab8ad4	1.3401742
145	0xbea67025	-0.32507434
146	0x3c233288	0.009960778
147	0x3fb79583	1.4342502
148	0x3fc2d191	1.5220205
149	0x3cf6ce42	0.030127648
150	0xbe6725d6	-0.22573027
151	0xbe8ab812	-0.2709356
152	0x3fb7e1c7	1.4365777
153	0xbf797e72	-0.97458565
154	0xbf23ff52	-0.6406146
155	0xbf043832	-0.5164825
156	0xbcced06a	-0.025245864
157	0xbee486de	-0.44634145
158	0x3fc3fbee	1.5311258
159	0xbf19f2e8	-0.6013627
160	0xbf00cc97	-0.5031218
161	0xbecac690	-0.39604616
162	0xbeebaaf1	-0.46028855
163	0x3fed37c5	1.8532645
164	0xbf3823c9	-0.71929604
165	0xbec1848d	-0.3779644
166	0xbed29e59	-0.41136435
167	0xbf08fd6d	-0.535117
168	0xbec9c15d	-0.39405337
169	0x3cfb8767	0.030704213
170	0xbecac862	-0.39606005
171	0x3f4cb7db	0.7996804
172	0xbebecb39	-0.37264422
173	0x3f321e94	0.6957791
174	0xbf082595	-0.53182346
175	0xbed4e4d3	-0.4158083
176	0xbf089e3d	-0.5336645
177	0x3d7ff948	0.062493593
178	0xbe6454e6	-0.22298011
179	0xbeafa220	-0.3430338
180	0xbe50dc56	-0.20396551
181	0xbf572823	-0.8404562
182	0xbeea8d76	-0.4581105
183	0x3fb9adf4	1.4506211
184	0xbf4d9d30	-0.80317974
185	0xbf8003fa	-1.0001214
186	0xbf15271d	-0.5826281
187	0xbd6a6a45	-0.057230253
188	0x3fc8019d	1.5625492
189	0xbdd04955	-0.10170237
190	0xbf21607c	-0.6303785
191	0xbeddd366	-0.43325347
192	0x3fa47ca7	1.2850541
193	0xbf132096	-0.574716
194	0xbdd6bc6d	-0.10485158
195	0xbf1672f4	-0.58769155
196	0xbea3abb8	-0.31966949
197	0xbf25304b	-0.64526814
198	0xbee27203	-0.4422761
199	0xbf081bc1	-0.5316735
200	0x3fec51e0	1.8462486
201	0xbd3aee61	-0.045637492
202	0x3d90adf2	0.070644274
203	0x3daf043c	0.085457295
204	0x3f4925db	0.7857339
205	0xbf25f5a0	-0.6482792
206	0x3fce123e	1.6099317
207	0xbea74372	-0.32668644
208	0x3fc697df	1.5515097
209	0xbee6b206	-0.45057696
210	0xbf4cf9d9	-0.8006874
211	0x3f34e8ac	0.7066753
212	0x3f4ed3fe	0.80792224
213	0xbf1cc20f	-0.6123361
214	0xbf09e9bd	-0.5387228
215	0xbf40d486	-0.75324285
216	0x3fe8c57c	1.8185267
217	0xbc9af300	-0.0189147
218	0xbe6f1028	-0.23346007
219	0xbefebb19	-0.4975212
220	0x3c39e4a2	0.011346014
221	0xbec82db5	-0.39097372
222	0x3fe93582	1.8219454
223	0x3c2b1b63	0.010443541
224	0xbef632fc	-0.48085773
225	0xbe796e17	-0.24358402
226	0xbe80dafd	-0.25167075
227	0x3ff17867	1.8864869
228	0xbf1fd6db	-0.6243722
229	0xbef0e0e5	-0.4704658
230	0xbe9bb2c2	-0.3040982
231	0xbe8def62	-0.27721697
232	0xbee78883	-0.45221338
233	0x3d18bdb5	0.037290294
234	0xbec70ad7	-0.38875458
235	0x3f84c5b7	1.0372838
236	0x400f766d	2.2416031
237	0xbf4cea6d	-0.80045205
238	0xbf146ffa	-0.5798336
239	0xbec1d45f	-0.3785734
240	0xbe9905a3	-0.29887113
241	0x3d99abe4	0.07503489
242	0xbee8dce8	-0.45481038
243	0xbf8037a6	-1.0016983
244	0xbf5d4671	-0.8643561
245	0xbf2ad55a	-0.667318
246	0xbf146c76	-0.57978
247	0x3fc5abb2	1.5443022
248	0xbf477987	-0.7791981
249	0x3e119ab8	0.14219177
250	0xbe83e376	-0.25759476
251	0xbd4b6c1f	-0.04966366
252	0x3fd99156	1.6997478
253	0xbda58b1f	-0.08083176
254	0xbe8864f9	-0.26639536
255	0xbee179ad	-0.44038144

fc6.bias f4 [4]
0	0xbc428444	-0.011872355
1	0x3d63bc29	0.055599365
2	0x3e1c0d6a	0.15239492
3	0x3d91fc23	0.071281694
